ann.pt (torch, 5672 bytes, 3 tensors)

weight f4 [30, 14]
00000000: 9de9 0dc0 506a 88bf 882f 0440 935c 0740
00000010: 04fe 843f 40a8 d13d bc60 cbbd e3a3 5fbf
00000020: 16a2 c9bf 6d44 64bf 8436 2fbf a4c6 f73f
00000030: 20e0 8840 7eb5 fac0 4ee0 e13f c5ef 4b3f
00000040: a681 0cc0 c5dd 12c0 d07e cebf 4a31 12bf
00000050: 0af6 85be 42ec 1d3f 7739 633f 4940 f03e
00000060: 4e3d bf3d 2412 07c0 e143 85c0 f746 f740
00000070: 2f63 00c0 d68b 54bf 41e1 dd3f bd66 eb3f
00000080: 9499 3f3f b5d7 c83d dd2f d9be d6dc 93bf
00000090: 531c 9bbf 271e b9be 36b9 51be c143 1940
000000a0: 56bc 8d40 42c5 efc0 a202 f23f 8fa4 3840
000000b0: f880 8e40 920d c03f cdb2 c5be 632f f3bf
000000c0: b05e 4ec0 9c96 9bc0 675c a3c0 5760 a8c0
000000d0: 1258 cebf fbb2 0040 4fd5 f240 9b76 68c1
000000e0: 9997 cf3f a3d6 333f 61eb 11c0 f6f3 03c0
000000f0: f6a3 bbbf b5f0 2fbf 0a72 743e 1ad5 113f
00000100: f651 7f3f 95f6 183f 2274 0d3f 1535 fabf
00000110: c80e 85c0 b4ad f240 8ff6 8abe f364 8fbe
00000120: 4ab3 08bd ca9e cf3c 4c43 d63d 6c4f e93c
00000130: c095 6f3d e604 64bc 9eae 74bd b9fa 0c3e
00000140: de5b 24be 6282 bbbe f73d b73c cea6 13be
00000150: 972d 0ac0 7159 75bf b05b d43f 005a ec3f
00000160: 40d7 423f 032e cc3e 3ba1 473d 7ef0 3cbf
00000170: 6df3 46bf 4cd6 fcbe da51 03be 0bcf 0540
00000180: bfa5 8040 a419 d3c0 84ea 04c0 7ccc 77bf
00000190: ea53 0940 1ee4 1040 261a 623f b132 153f
000001a0: 891c 1c3d 46a0 6cbf 5485 abbf c130 12bf
000001b0: e745 f7be 58f2 0840 8e0e 6740 bd10 edc0
000001c0: 43bc ec3f 4ada 563f 932e eabf 4bc7 0bc0
000001d0: 79b6 b4bf bbb1 29bf 60bc 2fbd 93d5 493f
000001e0: 14b0 823f bbec 9b3e e61c 343e 6f29 00c0
000001f0: f6df 8cc0 175a f240 65d7 f9bd ec85 0840
00000200: 2461 d040 200e 7540 d2b5 f03f 8848 fabc
00000210: 051e b6bf 1b96 6bc0 6d44 92c0 43dc 99c0
00000220: bc39 5fbe 7f16 8740 ab81 1a41 bf36 7dc1
00000230: 4007 10c0 9e10 37bf b9a2 f63f 571e 0940
00000240: a984 8c3f 4dad 083f 0755 383d ab8d 6abf
00000250: 2f79 a2bf b4ba 84be 3232 e4be 0e8c eb3f
00000260: 5dd2 8140 7ee7 e3c0 a9f2 e13f fcc0 1e40
00000270: 227d 8540 46f3 b03f e3fb 89be 917a c0bf
00000280: 465e 2ec0 aea4 91c0 29f3 99c0 bc07 aac0
00000290: bd5d b1bf 5d7e f63f 6d84 ea40 fb46 58c1
000002a0: 6014 f9bf 6242 71bf ce94 0440 b3c9 1340
000002b0: b2ff 8b3f 15ac aa3e dd5b e9be ea8b 98bf
000002c0: 3ae7 bfbf b24f 5bbf 6aee 88be bf97 e93f
000002d0: 4929 8640 e6e9 04c1 9ae0 d73f f680 573f
000002e0: f676 f7bf 7709 f7bf f1df 96bf 3f30 1cbf
000002f0: cb63 8ebd e18f 373f 3fba 283f 0f87 a83d
00000300: 302d 113e 7123 06c0 29aa 89c0 cfa1 e140
00000310: 80f2 0540 ccc7 923f b04a fabf cf1a 12c0
00000320: f5f6 98bf e78c a9be 51df 2e3e a109 223f
00000330: ecf4 1d3f f2bc 283e f2a5 5f3e b8d9 f6bf
00000340: 425b 86c0 a2b1 e740 f1b5 3c40 578c bd3f
00000350: 4e8d 0fc0 fe3d fbbf abff 85bf 25d1 f53d
00000360: 1df1 3a3f e043 e53f 039d 0a40 2b5b 0240
00000370: ca04 e13f c15a 4ebf 0ea7 21c0 a5cc 0a41
00000380: 098d f1bf d127 3cbf 389b f43f d1dc f63f
00000390: eee6 8b3f 9cec db3e 9462 03be 5750 89bf
000003a0: a3ef a0bf a253 45bf c6b7 21bf b431 0940
000003b0: bbfd 7340 b903 f8c0 b390 0ec0 ac9f 55bf
000003c0: 4428 1340 b39c 0340 b949 b23f dfcc 173f
000003d0: 7559 27be 68d3 a2bf bd2c a8bf 53bc 7ebf
000003e0: 42ef 66bf 4b14 d63f cc0c 7340 3e22 06c1
000003f0: e63f 3cbe 58c4 e03d b0a6 cebb da23 cf3d
-2.2173836 -1.0657444 2.065401 2.1150253 1.039002 0.10237169 -0.0993056 -0.87359446
-1.575259 -0.8916691 -0.6844256 1.9357495 4.277359 -7.834655 1.7646577 0.79662734
-2.195413 -2.2947857 -1.613245 -0.5710646 -0.26164275 0.61688626 0.8875956 0.46924046
0.09337865 -2.1104822 -4.164536 7.7274127 -2.0060537 -0.8302587 1.7334367 1.8390728
0.74843717 0.09806768 -0.4241933 -1.1551769 -1.2118019 -0.36155817 -0.20480809 2.3947604
4.42924 -7.4928293 1.8907053 2.8850439 4.4532433 1.5004141 -0.38612977 -1.8998836
-3.2245293 -4.862135 -5.1050296 -5.26176 -1.6120627 2.010924 7.5885386 -14.528956
1.6218139 0.70249385 -2.2799914 -2.0617652 -1.4659412 -0.68726665 0.23871627 0.5696579
0.9973444 0.59751254 0.5525533 -1.9547449 -4.1580544 7.583704 -0.27141234 -0.28006706
-0.03337411 0.025344271 0.104620546 0.028480254 0.058492422 -0.0139171835 -0.05973684 0.13767518
-0.1605067 -0.36622912 0.022368414 -0.144191 -2.1590326 -0.958396 1.6590481 1.8464966
0.76109695 0.39878854 0.048737746 -0.7380446 -0.7771519 -0.49382246 -0.12824193 2.090762
4.0202327 -6.59688 -2.0768137 -0.96796393 2.1457467 2.2639232 0.8832115 0.58280474
0.03811315 -0.9243206 -1.3400064 -0.5710564 -0.4829552 2.1397915 3.6102633 -7.4082932
1.8494953 0.8392683 -1.8295463 -2.1840389 -1.4118186 -0.6628682 -0.042904258 0.78841513
1.0209985 0.3045405 0.17589149 -2.002529 -4.402339 7.5734973 -0.12199286 2.133174
6.511858 3.8289871 1.8805487 -0.030552164 -1.4227911 -3.6810367 -4.5708528 -4.8081374
-0.21799368 4.221496 9.656657 -15.825866 -2.2504425 -0.7150973 1.9268409 2.1424768
1.0977985 0.53389436 0.045002963 -0.9162242 -1.2693232 -0.25923693 -0.44569546 1.8402116
4.056929 -7.1220083 1.7652179 2.4805288 4.171525 1.3824241 -0.26949987 -1.5037404
-2.724504 -4.5513525 -4.8109326 -5.313444 -1.3856732 1.9257313 7.3286653 -13.517329
-1.9459343 -0.9424192 2.0715823 2.3091857 1.0937407 0.33334413 -0.455779 -1.1917698
-1.499244 -0.8566848 -0.26744395 1.8249434 4.1925397 -8.307104 1.6865418 0.84181154
-1.9333179 -1.9299763 -1.1787091 -0.6101112 -0.06952628 0.71703917 0.6590919 0.082288854
0.14177394 -2.0959132 -4.3020215 7.051002 2.092926 1.1467223 -1.9554043 -2.2828863
-1.1950365 -0.33115312 0.17077376 0.6329594 0.61701846 0.16478327 0.21840647 -1.9285192
-4.19864 7.2404337 2.9486048 1.4808453 -2.2429996 -1.9628294 -1.0468649 0.12002782
0.7302416 1.7911339 2.1658332 2.0368145 1.7579587 -0.8060723 -2.5258212 8.674962
-1.8871166 -0.73498255 1.9109869 1.9286138 1.0929849 0.42953956 -0.12830573 -1.0727643
-1.2573131 -0.7708074 -0.6317104 2.1436586 3.8123615 -7.7504544 -2.2275817 -0.83446765
2.2993326 2.0564392 1.3928748 0.59296983 -0.16342719 -1.2720766 -1.3138653 -0.9950611
-0.9020883 1.6724943 3.797656 -8.38336 -0.1838375 0.109749496 -0.006306492 0.1011426

bias f4 [30]
00000000: ca19 0e3f 915d 85bf 457c 7c3f 5b40 8fc0
00000010: 6da7 90bf 52d8 db3d c837 933f a6a9 a93e
00000020: 43ca a3bf 0758 41c1 1397 1e3f ce14 8bc0
00000030: 7e95 b43e 4f8a 9abf cc92 bcbf 432f 0840
00000040: 7306 273f 68d1 00bd cc1f 73be 54ba 92be
00000050: 84e7 0ac1 6ba9 a7bf 5fb2 babf 9220 953f
00000060: 9b86 0dc1 20f8 c2bf b2bb b0bf aed0 853f
00000070: c883 3d3f 43c4 d33d
0.555081 -1.0419179 0.9862712 -4.476606 -1.1301094 0.10734619 1.1501398 0.33137244
-1.27961 -12.083991 0.6194927 -4.3462896 0.35270303 -1.2073458 -1.4732299 2.1278846
0.65244216 -0.031449705 -0.23742598 -0.28657782 -8.681522 -1.3098577 -1.4585685 1.1650565
-8.845363 -1.5231972 -1.380728 1.0454309 0.7402921 0.10340168

weight f4 [1, 30]
00000000: f8cb 2640 e07a 1cc0 5264 1e40 8fc6 5241
00000010: 6d0e 1ac0 2dbb 053e 227c 1940 7ca4 1540
00000020: 1d30 23c0 f7cd 8d41 75ee 1140 a9fb 3841
00000030: 0bf9 1340 7568 21c0 7479 31c0 cc19 aac0
00000040: 83bf 0d40 b909 0840 d9cc a9bd 8161 5f3b
00000050: ff69 7341 f39b 1fc0 e185 07c0 dce4 1740
00000060: 401d 6d41 c8e4 18c0 19d6 1cc0 129a b6c0
00000070: 4cc3 0e40 e327 833d
2.6061993 -2.4449997 2.474873 13.173476 -2.4071305 0.13059683 2.3982015 2.3381643
-2.5498116 17.725569 2.2801793 11.56144 2.3120754 -2.5220006 -2.773038 -5.315649
2.214814 2.1255934 -0.08291025 0.0034085216 15.213378 -2.4938934 -2.1175463 2.3733435
14.819641 -2.3889637 -2.4505675 -5.7063074 2.23067 0.06404092
